Namespace(batch_size=2048, beta1=0.5, beta2=0.999, channels=1, d_conv_dim=64, d_lr=0.0004, dataroot='../data', dataset='mnist', epochs=10000, g_conv_dim=64, g_lr=0.0001, g_num=5, img_size=64, log_path='./logs', log_step=10, model='acgan', model_save_path='./models', model_save_step=1.0, n_classes=10, num_workers=2, parallel=False, pretrained_model=None, sample_path='./samples', sample_step=100, train=True, use_tensorboard=True, version='1108_mnist_katayama', z_dim=100)
Generator(
  (label_embedding): Embedding(10, 100)
  (linear): Linear(in_features=100, out_features=768, bias=True)
  (deconv1): Sequential(
    (0): ConvTranspose2d(768, 384, kernel_size=(4, 4), stride=(1, 1), bias=False)
    (1): BatchNorm2d(384, eps=1e-05, momentum=0.1, affine=True, track_running_stats=True)
    (2): ReLU(inplace=True)
  )
  (deconv2): Sequential(
    (0): ConvTranspose2d(384, 256, kernel_size=(4, 4), stride=(2, 2), padding=(1, 1), bias=False)
    (1): BatchNorm2d(256, eps=1e-05, momentum=0.1, affine=True, track_running_stats=True)
    (2): ReLU(inplace=True)
  )
  (deconv3): Sequential(
    (0): ConvTranspose2d(256, 192, kernel_size=(4, 4), stride=(2, 2), padding=(1, 1), bias=False)
    (1): BatchNorm2d(192, eps=1e-05, momentum=0.1, affine=True, track_running_stats=True)
    (2): ReLU(inplace=True)
  )
  (deconv4): Sequential(
    (0): ConvTranspose2d(192, 64, kernel_size=(4, 4), stride=(2, 2), padding=(1, 1), bias=False)
    (1): BatchNorm2d(64, eps=1e-05, momentum=0.1, affine=True, track_running_stats=True)
    (2): ReLU(inplace=True)
  )
  (last): Sequential(
    (0): ConvTranspose2d(64, 1, kernel_size=(4, 4), stride=(2, 2), padding=(1, 1), bias=False)
    (1): Tanh()
  )
)
Discriminator(
  (conv1): Sequential(
    (0): Conv2d(1, 16, kernel_size=(3, 3), stride=(2, 2), padding=(1, 1), bias=False)
    (1): LeakyReLU(negative_slope=0.2, inplace=True)
    (2): Dropout(p=0.5, inplace=False)
  )
  (conv2): Sequential(
    (0): Conv2d(16, 32, kernel_size=(3, 3), stride=(1, 1), padding=(1, 1), bias=False)
    (1): BatchNorm2d(32, eps=1e-05, momentum=0.1, affine=True, track_running_stats=True)
    (2): LeakyReLU(negative_slope=0.2, inplace=True)
    (3): Dropout(p=0.5, inplace=False)
  )
  (conv3): Sequential(
    (0): Conv2d(32, 64, kernel_size=(3, 3), stride=(2, 2), padding=(1, 1), bias=False)
    (1): BatchNorm2d(64, eps=1e-05, momentum=0.1, affine=True, track_running_stats=True)
    (2): LeakyReLU(negative_slope=0.2, inplace=True)
    (3): Dropout(p=0.5, inplace=False)
  )
  (conv4): Sequential(
    (0): Conv2d(64, 128, kernel_size=(3, 3), stride=(1, 1), padding=(1, 1), bias=False)
    (1): BatchNorm2d(128, eps=1e-05, momentum=0.1, affine=True, track_running_stats=True)
    (2): LeakyReLU(negative_slope=0.2, inplace=True)
    (3): Dropout(p=0.5, inplace=False)
  )
  (conv5): Sequential(
    (0): Conv2d(128, 256, kernel_size=(3, 3), stride=(2, 2), padding=(1, 1), bias=False)
    (1): BatchNorm2d(256, eps=1e-05, momentum=0.1, affine=True, track_running_stats=True)
    (2): LeakyReLU(negative_slope=0.2, inplace=True)
    (3): Dropout(p=0.5, inplace=False)
  )
  (conv6): Sequential(
    (0): Conv2d(256, 512, kernel_size=(3, 3), stride=(1, 1), padding=(1, 1), bias=False)
    (1): BatchNorm2d(512, eps=1e-05, momentum=0.1, affine=True, track_running_stats=True)
    (2): LeakyReLU(negative_slope=0.2, inplace=True)
    (3): Dropout(p=0.5, inplace=False)
  )
  (last_adv): Sequential(
    (0): Linear(in_features=32768, out_features=1, bias=True)
  )
  (last_aux): Sequential(
    (0): Linear(in_features=32768, out_features=10, bias=True)
    (1): Softmax(dim=1)
  )
)
Elapsed [0:00:44.920367], G_step [0/10000], D_step[0/10000], d_loss: 4.9323, g_loss: 7.7401, Acc: 0.1562
Elapsed [0:00:39.238864], G_step [10/10000], D_step[10/10000], d_loss: 4.8321, g_loss: 6.7213, Acc: 0.2097
Elapsed [0:00:39.138668], G_step [20/10000], D_step[20/10000], d_loss: 4.8510, g_loss: 6.3447, Acc: 0.2212
Elapsed [0:00:36.534382], G_step [30/10000], D_step[30/10000], d_loss: 4.8510, g_loss: 6.5976, Acc: 0.2303
…
